final/sulfur_solubility_model.pth (torch, 5928 bytes, 5 tensors)

fc1.weight f4 [32, 6]
8.876393 5.2545624 -2.7618418 7.050779 -1.007817 0.16531752 0.084834844 -0.35085732
-0.2610442 -0.21785589 0.2240904 -0.29186922 0.37487352 -0.27550048 0.22241479 0.03448829
-0.1592216 -0.29802972 0.11715829 -0.09261495 0.0904057 0.2162537 0.14328557 -0.32605872
0.35548055 0.27842975 -0.3229286 -0.27385393 -0.39352283 -0.1693398 12.325942 7.365838
-2.76173 4.334512 -0.1153921 -0.01805975 1.3779807 -2.285619 1.883915 -7.334716
-0.06848497 -0.070150755 0.008027077 0.08338657 -0.039972484 0.038471878 -0.3524914 -0.3751198
-0.26971912 -0.22793233 -0.116547525 0.08065346 -0.010010213 -0.3137728 4.729138 5.614785
-1.7514795 15.276553 0.17126136 -0.16788644 0.08312455 0.022147238 -0.14788729 -0.2084453
-0.353845 -0.30367863 -0.02928093 -0.11089742 -0.33873183 0.32439637 -0.18728016 -0.32449055
0.32751018 -0.025388062 0.35378188 0.19933599 -0.2553645 -0.096116275 7.2906847 5.19141
-0.46823597 12.351182 0.14341083 -0.18577145 -0.046729714 -0.12156445 0.20484865 0.34406024
0.20174766 -0.14796382 0.024820805 -0.009994924 -0.028573751 -0.14482382 -0.3976627 -0.09284338
0.30125046 -2.8940134 -1.7474278 -10.339091 -0.103095874 0.0014697291 -4.549807 -3.4212258
1.9001533 -6.3542004 -0.64379674 0.19796307 0.32263994 -0.117381334 0.27930528 0.035222292
-0.10760757 -0.02554369 -22.432833 -12.827378 -2.1157043 -14.8009205 0.10235907 0.03145985
0.11963242 -0.37506872 0.2697037 0.14653522 0.3681311 -0.23428172 0.21251881 -0.34324035
0.34345818 -0.30334508 -0.15784895 -0.13708323 4.256038 1.3889344 1.1221421 7.3640404
0.7472585 -0.050098594 7.675728 7.5200768 -4.312254 13.541233 -0.7275487 0.08944376
-11.753883 -17.518723 14.269527 -8.497599 0.88329613 -0.061611656 -0.012575806 1.6671662
-2.8454974 2.6699955 -0.07948945 -0.0073948493 0.36361092 -0.32652894 -0.061170995 0.16276473
-0.10991436 -0.29382676 -0.011072576 -0.11904326 -0.37061024 -0.10675821 -0.35111034 -0.24300285
-7.054256 -6.6712146 5.0420914 -10.80193 -0.4085803 0.12923092 -4.991064 -3.546065
2.1144385 -7.1865907 0.08371227 -0.044239175 -10.32931 -4.2949786 2.508948 -5.0243816
-0.0054239924 -0.037672758 -11.576246 -5.2856708 3.658836 -5.00213 -0.28178477 -0.021838907
00000000: b505 0e41 6025 a840 04c2 30c0 fb9f e140
00000010: 2600 81bf ff48 293e e4bd ad3d 92a3 b3be
00000020: 96a7 85be 9d15 5fbe f477 653e e26f 95be
00000030: 6cef bf3e 660e 8dbe b4c0 633e 9843 0d3d
00000040: fd0a 23be 5a97 98be b0f0 ef3d e8ac bdbd
00000050: a026 b93d 9c71 5d3e 74b9 123e 2bf1 a6be
00000060: 8c01 b63e 588e 8e3e e656 a5be 9536 8cbe
00000070: d37b c9be 6a67 2dbe 0f37 4541 f2b4 eb40
00000080: 2fc0 30c0 53b4 8a40 b152 ecbd 0af2 93bc
00000090: ac61 b03f 9547 12c0 2024 f13f feb5 eac0
000000a0: d941 8cbd 33ab 8fbd 0084 033c 94c6 aa3d
000000b0: 30ba 23bd b094 1d3d c179 b4be b40f c0be
000000c0: a018 8abe 1867 69be 78b0 eebd a42d a53d
000000d0: e001 24bc d4a6 a0be 1955 9740 52ac b340
000000e0: 7b30 e0bf c36c 7441 235f 2f3e 6cea 2bbe
000000f0: 343d aa3d 206e b53c c46f 17be af72 55be
00000100: 2c2b b5be c47b 9bbe 90de efbc 301e e3bd
00000110: 426e adbe 4817 a63e 5fc6 3fbe a023 a6be
00000120: 6aaf a73e a0fa cfbc e622 b53e bc1e 4c3e
00000130: 23bf 82be 9cd8 c4bd 4a4d e940 0820 a640
00000140: a0bc efbe 719e 4541 4ada 123e df3a 3ebe
00000150: a867 3fbd c8f6 f8bd d8c3 513e aa28 b03e
00000160: f096 4e3e d483 17be 0055 cb3c c0c1 23bc
00000170: 8013 eabc b24c 14be 729a cbbe ac24 bebd
00000180: 803d 9a3e 8437 39c0 b7ab dfbf eb6c 25c1
00000190: ee23 d3bd eda3 c03a 0598 91c0 5df5 5ac0
000001a0: 3938 f33f 9c55 cbc0 ddcf 24bf d5b6 4a3e
000001b0: 1031 a53e a065 f0bd 1a01 8f3e 4045 103d
000001c0: 5c61 dcbd 0041 d1bc 7176 b3c1 f13c 4dc1
000001d0: b367 07c0 92d0 6cc1 a2a1 d13d 0bdc 003d
000001e0: d801 f53d 0209 c0be 9a16 8a3e 540d 163e
000001f0: ae7b bc3e 8ce7 6fbe 889e 593e 33bd afbe
00000200: c0d9 af3e 0c50 9bbe 28a3 21be 8c5f 0cbe
00000210: 7731 8840 9ac8 b13f 5aa2 8f3f 38a6 eb40
00000220: 554c 3f3f 2f34 4dbd 909f f540 78a4 f040
00000230: fcfd 89c0 e4a8 5841 a240 3abf 4a2e b73d
00000240: e80f 3cc1 5826 8cc1 fc4f 6441 2af6 07c1
00000250: b21f 623f 815c 7cbd c10a 4ebc b465 d53f
00000260: a11c 36c0 35e1 2a40 5dcb a2bd 7e50 f2bb
00000270: 362b ba3e cd2e a7be 708e 7abd ccab 263e
00000280: c81a e1bd 7670 96be c069 35bc f4cc f3bd
00000290: a0c0 bdbe 0ca4 dabd bcc4 b3be bdd5 78be
000002a0: 77bc e1c0 977a d5c0 d058 a140 b5d4 2cc1
000002b0: 7031 d1be 1c55 043e ccb6 9fc0 bbf2 62c0
000002c0: f652 0740 8df8 e5c0 5771 ab3d 2334 35bd
000002d0: db44 25c1 7770 89c0 9b92 2040 bcc7 a0c0
000002e0: bfbb b1bb c04e 1abd 4e38 39c1 3724 a9c0
000002f0: 5e2a 6a40 7311 a0c0 1846 90be 82e7 b2bc

fc1.bias f4 [32]
3.8450987 0.024356961 -0.09209809 -0.33692312 -0.089859605 4.8221316 1.2473238 0.35459203
-0.046960533 2.5004425 0.30102068 -0.070550054 0.06408927 3.3691354 0.24756092 -0.29418144
-1.620414 -2.3015866 -0.04589647 -9.921745 0.03524089 0.3210892 3.2236977 2.295096
4.876248 -1.4345373 -0.15527672 -0.09869525 -2.3122842 -1.6395992 -3.47853 -4.1094375
00000000: 1916 7640 4088 c73c ec9d bcbd 3081 acbe
00000010: 5008 b8bd e74e 9a40 4ea8 9f3f 168d b53e
00000020: b059 40bd 4007 2040 621f 9a3e 8c7c 90bd
00000030: 3c41 833d ea9f 5740 9c80 7d3e f39e 96be
00000040: ba69 cfbf 324d 13c0 f0fd 3bbd 78bf 1ec1
00000050: c058 103d ce65 a43e 1051 4e40 dae2 1240
00000060: 390a 9c40 eb9e b7bf dc00 1fbe bc20 cabd
00000070: 77fc 13c0 63de d1bf 3ca0 5ec0 8380 83c0

fc2.weight f4 [16, 32]
-0.86424845 0.022185802 0.16515781 -0.13038906 0.09641506 -0.54296297 -0.16008475 -0.13596518
-0.004902631 -0.09900162 -0.15036054 -0.16632318 0.066349715 -0.8072312 0.09729679 -0.022735596
-0.046181306 0.059079595 0.09015925 0.17467447 -0.15448679 0.019029021 -0.2980216 -0.38798204
-0.03363117 0.007556003 0.00842002 0.08139889 0.1050091 0.06603064 0.75172615 0.7745659
-0.06414292 0.0021756142 0.05937344 -0.124408185 0.15899248 -0.14301975 -0.014273903 -0.0908878
-0.14671706 0.124902055 0.14995255 -0.14654307 0.08452393 0.05449656 -0.07394085 0.12042411
0.1129991 -0.20849672 -0.037186503 0.109725006 0.13038562 0.08811571 -0.13336428 -0.029071908
0.05399104 -0.1549734 0.1442018 0.025970891 -0.22165498 0.029663714 -0.17226769 -0.14372586
0.13490821 -0.16295435 -0.11391073 -0.117399365 -0.00043061376 -0.24047253 0.10592154 0.16064079
-0.030693203 0.10328775 -0.16707972 -0.058852427 -0.036814764 -0.04147185 0.042834595 -0.16898051
0.084963545 -0.11220578 -0.13692379 -3.2961667 -0.06579559 0.14747764 0.20336431 -0.25932005
0.46129096 0.033050165 0.065888435 0.014695242 0.073591605 0.11002108 -0.034403972 0.054311257
-0.2550787 0.15063654 -0.08490105 0.08922233 -0.022518232 -0.39310136 -0.08699371 0.04227531
0.038928762 -0.18728974 -0.06418097 0.1677124 -0.027264431 -0.32889476 0.07542835 0.1608312
0.11802004 -0.29564628 0.06479098 -0.3826542 0.12255202 -0.16247807 -0.34669212 -0.22014098
-0.102050446 -0.018642545 -0.16197652 0.15874003 -0.47832268 0.020993173 -0.057480775 -0.021188766
-0.088671446 -0.013056412 -0.071144976 -0.040615037 0.037514105 -0.16362669 -0.13496053 -0.13798322
0.15983056 0.05120729 -0.16431314 -0.1156483 -0.09122502 0.06926063 0.019945681 0.0902691
-0.018164665 0.06304844 -0.10823207 -0.030188084 0.078182265 -0.15145858 -0.06070392 -0.13580547
-0.15445545 0.00019387901 -0.013532534 -0.15801315 -0.010380298 0.06226155 -0.12014857 -0.10974272
-0.07273207 -0.09147379 0.115563706 0.1284525 0.17426284 0.089762904 -0.10301609 0.12654944
-0.16681974 0.049139418 0.16242065 -0.075811096 0.15701236 -0.010762628 0.11857666 0.045697913
0.052037798 -0.290351 -0.13315786 0.09485037 -0.15580165 -0.090164624 -0.10606864 -0.25183517
-0.06748834 0.03902085 0.01291348 -0.11671446 -0.13892454 -0.2068632 -0.10435995 -0.21830349
-0.1303935 0.03543915 -0.082878865 -0.068970345 0.16176973 -0.15948465 -0.1624564 -0.061074242
0.1557223 -0.35436 -0.06179691 0.017428443 -0.17133135 -0.4346171 -0.068856634 0.10086955
-0.467871 -0.47427118 -0.06458631 -0.2259866 -0.17516957 0.03098464 -0.24507187 -0.45448244
-0.2781391 -0.122589774 -0.17162709 -0.04990007 -0.4227019 -0.2470544 0.0684879 -0.0833284
0.03551306 -0.11140065 -0.11873755 -0.16511123 -0.15821621 -0.16622552 -0.077754736 -0.088437155
0.11844157 -0.026163906 -0.038978696 0.091419056 -0.17553246 -0.10802985 -0.047158316 0.041498527
0.031935453 -0.020146951 0.008999273 -0.14746986 0.06275746 0.06389631 -0.040135205 -0.014603317
-0.14595826 -0.09080932 0.15614454 0.025707304 -0.09294198 -0.04285057 0.08261047 0.00756827
00000000: 633f 5dbf 00bf b53c 211f 293e b684 05be
00000010: 4275 c53d 9fff 0abf 42ed 23be 753a 0bbe
00000020: 40a6 a0bb 5dc1 cabd 1df8 19be a050 2abe
00000030: 5ce2 873d b4a6 4ebf 8a43 c73d 0040 babc
00000040: 9c28 3dbd 72fd 713d 6aa5 b83d dddd 323e
00000050: c931 1ebe c0e2 9b3c 4a96 98be 95a5 c6be
00000060: d6c0 09bd 5998 f73b 20f4 093c 76b4 a63d
00000070: 030f d73d 123b 873d 2071 403f f349 463f
00000080: 5d5d 83bd c094 0e3b 9031 733d b8c9 febd
00000090: edce 223e c573 12be 17dd 69bc 6223 babd
000000a0: ff3c 16be a6cc ff3d 298d 193e 630f 16be
000000b0: e21a ad3d c937 5f3d 4d6e 97bd eaa0 f63d
000000c0: 126c e73d 2a80 55be e050 18bd 81b7 e03d
000000d0: cf83 053e 0276 b43d a590 08be 3628 eebc
000000e0: b525 5d3d 59b1 1ebe a3a9 133e e8c0 d43c
000000f0: 86f9 62be 5101 f33c f166 30be df2c 13be
00000100: 6125 0a3e 81dd 26be 074a e9bd 146f f0bd
00000110: 00c4 e1b9 6e3e 76be 64ed d83d 057f 243e
00000120: 5070 fbbc 8788 d33d f216 2bbe 3e0f 71bd
00000130: 14cb 16bd 63de 29bd 5473 2f3d 3a09 2dbe
00000140: 5e01 ae3d 25cc e5bd c035 0cbe 65f4 52c0
00000150: d7bf 86bd 6104 173e bc3e 503e 99c5 84be
00000160: 542e ec3e 9c5f 073d 84f0 863d 50c4 703c
00000170: 32b7 963d bb52 e13d 2eeb 0cbd 7b75 5e3d
00000180: ad99 82be 7740 1a3e 9ae0 adbd 32ba b63d
00000190: 2878 b8bc 9544 c9be c229 b2bd e028 2d3d
000001a0: c473 1f3d e2c8 3fbe 5071 83bd cdbc 2b3e
000001b0: a859 dfbc e564 a8be 2e7a 9a3d efb0 243e
000001c0: 7eb4 f13d f35e 97be 22b1 843d 40eb c3be
000001d0: 8efc fa3d a760 26be a181 b1be a36c 61be
000001e0: d3ff d0bd 40b8 98bc 2cdd 25be bf8c 223e
000001f0: b6e6 f4be e0f9 ab3c f670 6bbd 1094 adbc
00000200: 6099 b5bd 90ea 55bc 75b4 91bd f45b 26bd
00000210: 64a8 193d c18d 27be 1833 0abe 794b 0dbe
00000220: 9faa 233e bcbe 513d b441 28be 04d9 ecbd
00000230: 2fd4 babd 84d8 8d3d 2065 a33c 02df b83d
00000240: 10ce 94bc 8a1f 813d c7a8 ddbd 004d f7bc
00000250: 061e a03d f517 1bbe aca4 78bd 9710 0bbe
00000260: 9229 1ebe 004c 4b39 90b7 5dbc 33ce 21be
00000270: 2012 2abc f805 7f3d 7410 f6bd cbc0 e0bd
00000280: 8df4 94bd 9c56 bbbd aaac ec3d 0d89 033e
00000290: f571 323e 9dd5 b73d 1afa d2bd 2d96 013e
000002a0: cbd2 2abe 6a46 493d 9951 263e d942 9bbd
000002b0: d9c7 203e bc55 30bc 52d8 f23d bc2d 3b3d
000002c0: 9625 553d e3a8 94be 895a 08be e940 c23d
000002d0: 788a 1fbe 3ba8 b8bd 843a d9bd 8af0 80be
000002e0: 5437 8abd 54d4 1f3d 1093 533c fe07 efbd
000002f0: 3c42 0ebe f2d3 53be abba d5bd f38a 5fbe
00000300: e085 05be a428 113d 65bc a9bd 5340 8dbd
00000310: f7a6 253e f24f 23be f85a 26be fc28 7abd
00000320: ab75 1f3e ad6e b5be c21e 7dbd 18c6 8e3c
00000330: 7c71 2fbe 2286 debe b504 8dbd b294 ce3d
00000340: ca8c efbe acd3 f2be d445 84bd 0869 67be
00000350: a75f 33be 80d3 fd3c 1ff4 7abe ecb1 e8be
00000360: 4068 8ebe 5910 fbbd 03bf 2fbe 0464 4cbd
00000370: 626c d8be d4fb 7cbe 6243 8c3d 15a8 aabd
00000380: 2476 113d 0626 e4bd ac2c f3bd eb12 29be
00000390: 6e03 22be 0637 2abe e03d 9fbd 8a1e b5bd
000003a0: 7e91 f23d b055 d6bc 20a8 1fbd ea39 bb3d
000003b0: c8be 33be c13e ddbd 1429 41bd 5cfa 293d
000003c0: c0ce 023d 380b a5bc b071 133c 5702 17be
000003d0: fc86 803d 12dc 823d d064 24bd c042 6fbc
000003e0: 1576 15be 3dfa b9bd 5be4 1f3e 2098 d23c
000003f0: 5d58 bebd 1484 2fbd ae2f a93d 40ff f73b

fc2.bias f4 [16]
-3.115003 -0.13303033 1.1882896 -0.23665442 -0.113884404 0.14475726 -0.17049743 0.119391724
-0.13280034 -0.24901457 -0.21583131 -0.15702002 0.007974829 -0.35983145 -0.37039036 -0.4100463
00000000: 365c 47c0 1a39 08be e019 983f 8955 72be
00000010: 3a3c e9bd 3f3b 143e e196 2ebe a683 f43d
00000020: d0fc 07be adfd 7ebe e202 5dbe dbc9 20be
00000030: dba8 023c d43b b8be cea3 bdbe 97f1 d1be

fc3.weight f4 [1, 16]
0.7431406 0.015429607 -0.7650167 -0.23270288 0.16647455 -0.22733638 0.08573464 0.22409642
-0.06759138 -0.10724575 0.26143587 0.16090956 0.5149994 0.24497527 -0.16761959 -0.39154792
00000000: 763e 3e3f 76cc 7c3c 22d8 43bf aa49 6ebe
00000010: 4e78 2a3e deca 68be a595 af3d 8879 653e
00000020: 596d 8abd a9a3 dbbd ecda 853e 7ac5 243e
00000030: 00d7 033f ccda 7a3e 78a4 2bbe f878 c8be
